models/lunarlander_ep10.pth (torch, 41857 bytes, 6 tensors)

net.0.weight f4 [128, 8]
00000000: 758e 03be 826c 03bf ec17 df3d e45b 94be
00000010: 28a7 d03e d77a 743f ce49 903d 9c0c 83bc
00000020: e830 7d3d 532f 7a3f 718c a7be 3732 dcbe
00000030: 96c9 4a3e 435d eabc fd34 083e 9a8e 2dbe
00000040: ca6e 82bf 607b 763e 28f8 b0bf bfe4 fbbe
00000050: 36e6 6c3f 017c 2dbd c752 43be 857e b33d
00000060: 4b17 ab3e 1d3a 77bd fc16 a43e 1c39 05bf
00000070: db4f d8be 05a5 863e 0424 473e 2bf7 d73e
00000080: 0d8c 873e 53c5 1b3f 3538 2dbe 9f20 103e
00000090: 523e 0f3f b897 bdbe 5886 34bd 0647 32be
000000a0: 2bdc 303f 6a8a 2fbf 5de5 043e f03f bb3d
000000b0: 6c6c 00bf e34f 053f df4b a33e b5b9 7b3e
000000c0: 1dd0 2d3e 6bc8 38bf a196 6b3e 5603 9bbe
000000d0: e187 443d df1d 223f fb67 52be e35f a8bd
000000e0: cebb 133f 2c34 82be 2c37 e13e 29d3 a2bd
000000f0: 7a7e 573e adff a33e baff b2be 2138 a7be
00000100: b2ed 043f 03b9 203f fa82 9c3e 6545 783e
00000110: 2974 953e c709 c5be 2c1a a3be 0a78 86be
00000120: a8b1 fb3e b42b 033e 1f51 29bf e8d0 04be
00000130: 7121 d1bd b782 a7bf 2b18 87be 1e63 fb3e
00000140: 800f 55bd ec8b cb3e 0c3a 403e 269c 963e
00000150: 4679 883e d764 4dbe 0114 bfbc 134e b1be
00000160: 6850 b0bd fe3d 4d3f 0df0 bfbe deae cabe
00000170: 33cb f1bd 7f8f 6cbe b182 f9be bfa3 053e
00000180: 1cf0 02bf 5a03 40be 552f 0abe 36a0 a93c
00000190: 4640 083f ac42 373f 76f1 c13e 91f7 1a3f
000001a0: f8da 0abd 1443 633f 6f21 203e ab16 e5be
000001b0: e4ba 65be 1451 013e 359d e8be 5644 32be
000001c0: 9c7d 493e 8fd5 2c3f 6881 31be 12f7 183e
000001d0: f41b e43d e181 c2bd 42fb 333e 1c58 493e
000001e0: d567 253f 0930 dabd 8e36 593e 1300 893e
000001f0: 7975 54bf 4b93 05c0 da3d 12bf 7a97 5dbe
00000200: d0d8 c4bd d74e d7be fd5a 373e f576 e8bd
00000210: 1e30 a2bf 875c c3bf 84d6 2f3e a5ea 643f
00000220: f30d 683e eb91 4c3f 6db2 9bbc a0cc d6be
00000230: 9bfa a4be fdc3 bc3d 9b5e f8bd c50a 38be
00000240: 75b8 d33e e3d6 3f3f a5a6 16be 85b3 7fbe
00000250: 5730 b83d be26 9cbe c54b 7dbe 5231 af3e
00000260: 5834 cabd c8cf 3d3f de81 a4be 1db2 23be
00000270: 71ca ad3e 8f2a ba3d b9d6 18be 4ae7 06be
00000280: b9c9 dbbd 91d8 3c3f 608f 2c3d 0039 8b3e
00000290: 36f0 4c3d e441 2abe c54c 8bbe 6983 5a3d
000002a0: cc33 ad3e 46c6 3c3f 8186 87be 8408 dfbd
000002b0: f96f dd3e 5526 febe a4dd 6ebe 834a 12be
000002c0: 7778 283e 4c94 4ebf ee95 b23e 885e 12bf
000002d0: b0bd 643e f7b4 6d3f 5ef0 d43e 1945 1fbd
000002e0: ec12 99bf 8ee0 333e b4ea 09c0 b232 d3bf
000002f0: 77ef 4b3e 5119 1a3e 38e9 cbbe 253f d0be
00000300: 3ecd 363e 64bb 333f db70 d13e 5a9b b0be
00000310: 87e9 403e af0e 8bbe c651 383d 991d a1be
00000320: 60c6 103f b2c2 ae3e d7ee 2dbf 6d34 2d3f
00000330: 3f91 f43e 270e 083f 9434 ea3d 4e3e 45be
00000340: a5e8 18be f6e9 e0be 6856 8fbe 3e55 d83d
00000350: 4b36 3e3f d243 163f b94a 373e 496c 063e
00000360: f70e 3b3f 5a9b 523e 9c03 c23e f3a7 91be
00000370: 9354 ed3e 9d69 8c3e bd62 013f 261a 51bf
00000380: 7544 12be 7ef2 943f ef8a ba3d b885 d5be
00000390: bf2c 7ebe 1e42 f8bd 2f34 26be 15ea 373e
000003a0: 9493 0f3e 3e21 333f bba6 ef3d 1a47 95be
000003b0: c18b 23be f399 8f3e 689b 093e d348 323e
000003c0: 1162 a33e 7ee1 45bf 2768 503e d7af dcbe
000003d0: da3b 61be cfea 533f 2551 cebc 25d2 153e
000003e0: 4963 903e 13b4 823f 572c d6be 707b 0bbf
000003f0: 62ba c83e 4109 9d3b a136 79be a39f e93e
-0.12847312 -0.51337445 0.108932346 -0.28976357 0.4075253 0.9549994 0.07045327 -0.015997224
0.06181422 0.9772846 -0.32724336 -0.4300706 0.19803461 -0.028608924 0.13301463 -0.1694893
-1.019006 0.24070501 -1.3825731 -0.49197957 0.92538774 -0.042354587 -0.19074546 0.08764366
0.3341621 -0.060358156 0.32048786 -0.52040267 -0.42248425 0.26297775 0.19447333 0.42180762
0.26474038 0.6084797 -0.16915973 0.14074944 0.5595447 -0.37029815 -0.044073433 -0.17409906
0.6908595 -0.6857058 0.1297812 0.091430545 -0.5016544 0.5207502 0.31893823 0.2458256
0.1697392 -0.72180814 0.23006679 -0.30275983 0.047981147 0.6332683 -0.20547478 -0.08221414
0.5770844 -0.2543043 0.43987405 -0.07950432 0.2104434 0.32031003 -0.3496073 -0.3266001
0.51925194 0.62782305 0.30568677 0.24245222 0.29190186 -0.38484022 -0.31855905 -0.26263458
0.49158978 0.1280964 -0.66139406 -0.12970316 -0.102114566 -1.3086766 -0.26385626 0.49099058
-0.052016735 0.3975519 0.18772143 0.29416007 0.26655024 -0.20057999 -0.023324968 -0.34629878
-0.08609086 0.8017272 -0.37487832 -0.39586538 -0.11806335 -0.23101614 -0.48732522 0.13050745
-0.5114763 -0.18751279 -0.13494618 0.020706277 0.53223073 0.7158611 0.37879533 0.60534006
-0.03390023 0.8877423 0.15637754 -0.44743857 -0.22434574 0.12628585 -0.4543244 -0.1740888
0.19676822 0.67513365 -0.17334521 0.14938 0.11138144 -0.09497429 0.17576316 0.19662517
0.6461156 -0.10653693 0.21212217 0.2675787 -0.8299175 -2.087115 -0.5712563 -0.21639815
-0.09611666 -0.42052338 0.17905803 -0.11350814 -1.2670934 -1.5262612 0.17171675 0.8942054
0.22661571 0.79910153 -0.019005978 -0.4195299 -0.32222447 0.09217069 -0.121274196 -0.17972858
0.41351667 0.74937266 -0.14712007 -0.24970825 0.08993595 -0.30498308 -0.24735935 0.34217316
-0.09873265 0.74145174 -0.3213033 -0.15985914 0.33943513 0.09090149 -0.1492566 -0.13174167
-0.10731835 0.73767954 0.04212892 0.27191925 0.05003377 -0.16626698 -0.27207008 0.05334798
0.3382858 0.7374004 -0.26469806 -0.10890296 0.4324949 -0.4963862 -0.23326737 -0.14286236
0.16452204 -0.80695033 0.34880012 -0.57175493 0.22337985 0.92854255 0.41589636 -0.038884256
-1.19589 0.1756613 -2.1549501 -1.6499846 0.19915567 0.1504872 -0.3982637 -0.40673175
0.17851731 0.7020781 0.40906414 -0.34493524 0.18839084 -0.2715964 0.04499986 -0.31467894
0.56552696 0.34132916 -0.67942566 0.6765812 0.47767064 0.53146595 0.1143581 -0.19262049
-0.14932497 -0.43928498 -0.2799561 0.10563134 0.74301594 0.58697236 0.17899598 0.13127245
0.7306971 0.20567074 0.3789338 -0.28448448 0.46353588 0.27424327 0.5054129 -0.81680524
-0.14283927 1.1636503 0.09108531 -0.41703582 -0.24821757 -0.12121986 -0.16230844 0.17960389
0.1402114 0.699726 0.11701723 -0.2915581 -0.1597128 0.2804714 0.13438189 0.17410593
0.31910756 -0.772972 0.20352231 -0.43102905 -0.21995488 0.82780164 -0.025185177 0.14630945
0.2820075 1.0211204 -0.41830704 -0.54485226 0.392047 0.004792363 -0.24337246 0.45629606

net.0.bias f4 [128]
00000000: 77f5 8a3f 8a66 523f 6b09 d7be 845c ea3e
00000010: 35e0 edbc cd44 823e df55 0f3f 5614 ef3e
00000020: 0092 033f 7cdb 873e a6b9 ca3e 014e fe3e
00000030: 0b7b 293f 6283 1c3f 8c2d b53e 2ba5 41bf
00000040: 53bf 6d3e 4565 243f 3b30 673d 16d4 293f
00000050: f3f8 a73e 4433 923d e4f1 023f 7762 abbe
00000060: 34cb d4bd 4de7 383e 2f41 5a3f 0a0c 0c3f
00000070: 14fc c03e b23f 443f 36ff 093f 25b8 993e
00000080: 0da0 1e3f d023 003f 4377 50be e3b8 8f3e
00000090: aa20 fd3e 03de 773f dd86 f33d fb6a 0fbd
000000a0: 004d 99be adda 243f a978 823f 7c50 18be
000000b0: 7c9b 9a3e 9489 d33e e5de d13e c0c0 84be
000000c0: 74d7 e73e 0d74 b93e 591f 453f 5751 b83e
000000d0: 7fd7 913e b948 ca3e 84fe 173e 2553 323f
000000e0: 0f66 0abe e5c8 1d3f c8b0 0bbe 29e2 353e
000000f0: bca5 94be 1543 95bd 130d 3c3e 5162 243e
00000100: ea52 f03e e3c2 993e 166e 5d3f fcc5 ed3e
00000110: 9003 2b3e 7944 73be 97da 033f 07d6 273d
00000120: 70c0 f33e ecd2 da3e e142 0c3f 2181 573e
00000130: 61f9 5c3f 4dc2 d93e fbd1 493f 4a76 323e
00000140: 4eaa 673e 1f22 723e 7ed6 283d 1b74 8e3e
00000150: 0974 343e 47e3 433f 29f9 003f 4db8 ef3e
00000160: b75c 113f fd3a 553e ee12 223e eb8d 2fbc
00000170: 3117 733e 5ddc 383f 7b7f 62be cdf0 1f3f
00000180: 849b 5e3c 0128 f23e de21 eb3e 4249 173f
00000190: 5146 183f 8cb1 033f 5440 123f 454b 83be
000001a0: 5897 323f a2f7 8f3e e620 3fbe 7c17 64be
000001b0: 5d66 c83e 2ad9 183f 9dea 5d3d 4fc6 b13e
000001c0: 1236 0d3f 990a 47be cfc5 dfbd ab3d 3c3e
000001d0: d4e8 53be ad0f 113f a9d7 103f 8b14 cc3e
000001e0: f6eb 2e3f 9079 553f 79b2 ba3e 911a 2a3f
000001f0: 3558 223e 3fb5 1c3f b7c8 a03e dac9 303f
1.085616 0.8218771 -0.41999373 0.4577371 -0.029037574 0.25443116 0.55990404 0.46695203
0.51394653 0.2653464 0.39594764 0.49668887 0.66203374 0.61137974 0.35386312 -0.7564265
0.23217516 0.64217025 0.05644248 0.6633924 0.3280712 0.071386844 0.51150346 -0.3347356
-0.103903204 0.18056984 0.8525571 0.5470587 0.3769232 0.7665969 0.53905046 0.30023304
0.6196297 0.50054646 -0.20357995 0.28070745 0.49438983 0.9682314 0.118909575 -0.035014134
-0.2994156 0.6439617 1.0193073 -0.14874452 0.3019675 0.413159 0.40990368 -0.25928307
0.45281565 0.36221352 0.7700096 0.35999557 0.28484723 0.39508608 0.14843184 0.6965812
-0.13515495 0.61634666 -0.13641655 0.17762055 -0.29032695 -0.072881855 0.18364362 0.1605313
0.46938258 0.300315 0.864961 0.46440113 0.16700578 -0.23756589 0.51505417 0.040975597
0.47607756 0.42739046 0.5478955 0.21045353 0.8631802 0.42531052 0.7883603 0.17427936
0.2262356 0.23645829 0.04122018 0.27822956 0.17622389 0.7651867 0.5038019 0.46820298
0.56782097 0.20823283 0.15827534 -0.010714988 0.23739316 0.7221125 -0.22118942 0.6247681
0.0135868825 0.47296146 0.45924276 0.5909616 0.59482294 0.5144279 0.57129407 -0.25643364
0.6976218 0.28118616 -0.18664894 -0.22274584 0.39140597 0.59706366 0.054178823 0.3472161
0.5516063 -0.19437636 -0.10926401 0.183829 -0.20694286 0.56664544 0.5657907 0.39859423
0.683288 0.83388615 0.3646429 0.6644679 0.15853961 0.6121406 0.31403133 0.69058

net.2.weight f4 [64, 128]
00000000: adbd 2abf d758 2e3d 9131 a53f 8242 11bd
00000010: 237f e13e 1d75 75be b7b1 90be 7033 a33e
00000020: 7320 dc3e 15cb f7be 6765 6a3e 5e50 ca3d
00000030: 936b 0cbf 0024 1b3e 861b 833e fe03 9bbf
00000040: a654 5cbf f010 3f3e ce4d 9e3e 777e 0d3e
00000050: 250e be3e 61d4 873e fce9 42be 8fb2 ff3f
00000060: 6fa4 c03e c94d f0be 2638 1dbf a1d4 553e
00000070: 7a5c 3d3e d428 0d3e 8036 16bf 7b4a e43d
00000080: 7f8e 973e 4a84 60be 1451 8f3f b099 753e
00000090: 92c1 8dbd a0cf be3d 592c dcbe 45c6 d63e
000000a0: 3a01 7abe 593e 2a3e aba3 35bf 4089 24bb
000000b0: 9c89 acbf b758 8cbf abad 893e 4945 d43c
000000c0: 946f 433d 3780 a53e 2940 34bf aa90 7d3c
000000d0: 5e6e cb3e 8313 b03e e0d2 b93e c730 56be
000000e0: d7d8 c83e dbfb 783e 6ee5 93bd 1aab 4d3e
000000f0: 773b 0b3f 4581 e63e 988a 853e 0e5d 693e
00000100: 5db1 0dbf ca7f 023e d11e 063d f1d5 8a3e
00000110: 50bc 27bf c00e a43e df6f c33e 8b54 493e
00000120: b031 f63e 5da7 c0be 63da 89be ce44 4b3e
00000130: 6a97 23bf eb50 f5be bc0a f2be dc70 913e
00000140: 6aa0 fb3e 52fc d73d e62b f43e 84f1 c23e
00000150: 9086 a13e bcf4 1cbd 7bbc ad3e 6c3a d73e
00000160: 5378 e3be 6c45 10bf 1c27 853e 3719 c93e
00000170: dbed d1bf b0f3 373e 8769 5d3f 8577 4e3e
00000180: 118e a83f 3550 4fbd 3d5a 8f3e 3f83 883c
00000190: 6271 a0be 7ad5 aa3c 20d8 14bf b1b5 5dbd
000001a0: e0fe 603d f4c5 403e 8504 f03e 7cd0 95bf
000001b0: 98df c7bc 3ad4 523e 54f5 993e a625 39be
000001c0: c3a2 1a3e adc5 ac3e 5a73 713e 2469 88be
000001d0: b6c0 4e3e c113 1bbf e6f0 4dbf 720a f3be
000001e0: 0287 33bf 182c 943e 6936 6c3c 87ab 4f3e
000001f0: d6d2 ab3e 33e3 12bf 3108 b6bf a483 3bbf
00000200: 9a16 273f f486 163f 6949 7abf a50d c43e
00000210: 1fc7 1bbc 5ce1 973e e2b2 093f ac23 eb3e
00000220: 64a7 033f 416b 4b3f da89 343e 6650 1a3f
00000230: 3cc7 9a3e e08c 083f f696 9e3e 8c00 a63f
00000240: 0a7a 1c3f c642 003f 41f8 9b3e 886d a23e
00000250: 4568 f63c 3c64 3b3e 1e1c 003f 9cc6 43bf
00000260: 8c78 9a3e deb3 8f3e 2a94 dc3e 0ff9 d93e
00000270: d05c 033f 08b4 153f 04bf ef3e 3886 9a3e
00000280: c599 063f 243a ea3e 2609 44bf c627 393e
00000290: 750a 453e c2ca 093f 2c49 f03e e212 f7bc
000002a0: c734 223f 5188 1e3f 3822 f93e 775a 893d
000002b0: 1355 793e ef38 b83f 48d0 383f 9089 813f
000002c0: 9952 d43e cc5b b33e 27be e13e 0247 083f
000002d0: 1448 153f ef75 973e 4f32 1c3e 9ddf db3e
000002e0: 78ee c13d 4efd 1d3f 0547 79bd adee d33e
000002f0: ddd3 dfbd 1ed7 31be 0db3 8a3e 5ac3 1f3f
00000300: cbd0 7c3f bd7b 013f 0b1b 0b3f aaca b23e
00000310: fd8f 9d3d 725c cb3e 59df 193f 8f89 913e
00000320: 2036 b83e 780e f83e 6a15 dd3e 2005 073f
00000330: abaa 263e fa21 013f 9a31 f13e 7d44 47be
00000340: d53a 033f 3f96 fd3e 1d4e c93e adc6 503e
00000350: 896b fe3e cee6 273f 01ab 1f3f 769c 973e
00000360: 3164 fa3e ee5b a43e 1be1 b83e 5a25 e73e
00000370: c568 233f 6144 f03e bea9 c7be e2bd 373f
00000380: 8b97 6e3e e266 073f 4da5 ed3e 702f d03e
00000390: 6ca8 d13e 430c ee3e 51bf c33e a733 813d
000003a0: 0a25 2e3f 2b91 2b3f 608b 84be 22fa 883f
000003b0: 3e95 e53e 3e72 fe3e bb90 aabd 35b3 953e
000003c0: 844d 013f 499e 0a3e 7dc6 233f 8994 4e3f
000003d0: 0791 0f3e 9166 f93e b2e7 503e 3f0b f03e
000003e0: 637c bb3e 67d5 083f e338 0d3f 6530 d93e
000003f0: d2d4 bc3e 2bf9 043f bd68 2b3e b578 d83e
-0.6669567 0.042565193 1.2905751 -0.035463817 0.4404231 -0.23970456 -0.28260586 0.3187518
0.42993507 -0.48397127 0.22890244 0.0987861 -0.54851645 0.15150452 0.25606936 -1.2110593
-0.86066663 0.18658805 0.30918735 0.13817774 0.37120166 0.2652922 -0.1903457 1.9976367
0.37625453 -0.46934345 -0.614138 0.20881893 0.18492308 0.13785106 -0.5867691 0.111470185
0.29600903 -0.21925464 1.1196618 0.23984408 -0.06921686 0.09316945 -0.43002585 0.41948143
-0.2441453 0.16625346 -0.7095286 -0.0025106221 -1.3479495 -1.0964574 0.2689031 0.025911944
0.04771383 0.32324383 -0.704104 0.015476385 0.3973264 0.34389886 0.36293697 -0.20917045
0.39227936 0.24314825 -0.072214946 0.20084801 0.5438761 0.450205 0.260823 0.22789404
-0.5534876 0.1274406 0.032744233 0.2711635 -0.6552172 0.32042503 0.38171288 0.19661157
0.48084784 -0.37627688 -0.26924428 0.19850466 -0.63902915 -0.47913298 -0.47273815 0.28406417
0.49145824 0.10546173 0.47689742 0.38074887 0.31547976 -0.038319334 0.33932862 0.4203676
-0.44427738 -0.5635593 0.260064 0.3927705 -1.6400713 0.17964053 0.86489147 0.2016278
1.3168355 -0.0506136 0.27998534 0.016664146 -0.31336504 0.020853747 -0.5814228 -0.054128353
0.054930568 0.18825513 0.46878448 -1.1704249 -0.02439861 0.2058877 0.30069983 -0.18080768
0.15101151 0.33744565 0.2357916 -0.26642716 0.20190701 -0.6057702 -0.80445707 -0.47468907
-0.7012788 0.2893989 0.014417269 0.20280276 0.33559293 -0.5737793 -1.422125 -0.7324774
0.6526886 0.5879967 -0.97768265 0.3829166 -0.009507923 0.29664123 0.5378858 0.45925653
0.5142729 0.7946053 0.17630711 0.6027893 0.3023013 0.5333996 0.3097455 1.2968917
0.61123717 0.5010189 0.3046284 0.3172419 0.030079016 0.18299955 0.50042903 -0.7647493
0.30170095 0.28066915 0.4308179 0.4257283 0.51313496 0.5847783 0.4682542 0.30180526
0.52578384 0.45747483 -0.7657646 0.18081579 0.1924227 0.5382501 0.46930826 -0.030160371
0.6336178 0.6192675 0.4865892 0.06706708 0.2434886 1.4392375 0.7219281 1.0120106
0.41469267 0.35030973 0.44090387 0.5323335 0.5831311 0.29582164 0.15253566 0.4294404
0.094693124 0.6171464 -0.060858745 0.41393033 -0.109290816 -0.17367217 0.2708973 0.6240746
0.9875609 0.50579435 0.5433814 0.34920245 0.07693479 0.39718968 0.60106426 0.2842526
0.35978794 0.4844854 0.431804 0.52742195 0.16276042 0.5044247 0.47108155 -0.1945972
0.51261646 0.4952869 0.39317408 0.20388289 0.49691418 0.65586555 0.62370306 0.29611558
0.48904565 0.32101387 0.36109242 0.45145684 0.6383174 0.4692717 -0.3899669 0.71774113
0.23299997 0.5289136 0.46415177 0.40661192 0.40948808 0.4649373 0.382319 0.0630868
0.6802527 0.67018384 -0.25887585 1.0701334 0.44840425 0.49696535 -0.083283864 0.29238287
0.50508904 0.13536943 0.63974744 0.80695397 0.14020167 0.48711064 0.20400885 0.4688358
0.36618337 0.53450626 0.5516493 0.42419735 0.3688112 0.519427 0.16739173 0.42279592

net.2.bias f4 [64]
00000000: 0b49 963d ba89 2e3f 0dcc f7bb a523 bd3d
00000010: e8a6 44bd 69c6 a6bd 388f cebc 5e1b 8f3d
00000020: b5b7 a33d 4555 4b3d be96 ccbd 71b2 fbbd
00000030: 4686 a3bd 0a4a 543d 6dc0 583b 541a d53e
00000040: bb91 b6bd 95e9 0a3f 9a17 0a3c db7f 96bb
00000050: 2aee 46bd 18c5 163d 8371 babd dc0b 943e
00000060: 19fd 67bd 6494 d6bd d48c 803d 3a95 033e
00000070: 7746 e2bb 1d14 fb3b 7870 23bd 859b 74bd
00000080: a86b bebc 021d e43d 4aef c63d 343e a23d
00000090: 275e 51bc 1fe4 683d 89ed 40bd 0159 973d
000000a0: 5cd4 0cbd e8b1 913d c4e0 943d 139b 57bc
000000b0: 96ab 94bd 4d27 023f 55c5 313f 7815 2f3f
000000c0: 4c23 dc3e 1e23 a7bd 3d43 963e 6591 d1bd
000000d0: ac53 aa3d 04e3 9a3c dd2a 7f3d 5bf4 a53e
000000e0: e115 4bbc 8c03 933c 7f2c bc3d 2225 523d
000000f0: cf1f c8bc 023a b63d b45f a23d 44a6 86bd
0.073381506 0.68178904 -0.0075621665 0.09235314 -0.048010737 -0.081433125 -0.025214776 0.06987642
0.07994024 0.049641866 -0.09989689 -0.12289894 -0.07984595 0.05182842 0.003307368 0.4162165
-0.08914515 0.5426267 0.008428479 -0.0045928783 -0.048566975 0.036809057 -0.09103682 0.28915298
-0.056637857 -0.10477522 0.06276861 0.12849894 -0.0069053727 0.00766231 -0.03990218 -0.059718627
-0.023244694 0.11138345 0.097136095 0.079220206 -0.012778795 0.05685818 -0.04710153 0.07390023
-0.03438221 0.07114011 0.07269433 -0.013159531 -0.0725929 0.5084122 0.6944173 0.68392134
0.4299568 -0.08160995 0.29348174 -0.1023281 0.083167404 0.018907078 0.062296737 0.3241299
-0.012395353 0.017946027 0.091881745 0.051304944 -0.02442923 0.08897783 0.0792841 -0.065746814

net.4.weight f4 [4, 64]
00000000: d8be f73e 1b51 fcbe bcbb 09bd c084 b53e
00000010: 2110 ec3e 8bf5 7f3d c41f ff3d 11f9 bd3e
00000020: 6831 143f 1916 c33e 10ff a8bd e2bd 9abd
00000030: c739 893c 032d 053f 2855 b03e 0212 ebbe
00000040: 78f5 b2bd b674 b8be 91b7 16bd 645f 13bd
00000050: ddfa eebd cac8 083f 8eb2 dbbd 0cea febe
00000060: fbfa a03e 7f70 643e 7833 d93e a666 47bd
00000070: baa9 f53e ede1 1cbb 71d6 e73e 2971 fbbd
00000080: 16ff 1fbd 986e c23e 2c68 653e ddc0 083f
00000090: 502f eb3e 8268 933d d416 7dbd 3b51 3fbe
000000a0: 5eae 05bb ae59 95bd 7840 ad3e 30ed ec3d
000000b0: 1c2b d83d 3876 babe 61b5 c4be 0132 f3be
000000c0: 52eb 99be 6de8 9f3e 8760 8ebd 2678 fcbd
000000d0: 6e5d dc3e 922f d63f a0d5 28bd 846f c7be
000000e0: 98df 983e b883 a73e 2b84 fe3e b868 fe3e
000000f0: ef7d 30bd 6124 0c3f 543b f83e fe3e cc3d
00000100: 22c1 f83e e870 17bf 33ef 2bbc 41cc 223e
00000110: 582f c93e 9708 d4bd 64b5 04bd 0122 633e
00000120: e84d c83e be46 0a3f f927 f7bd 05c6 53bd
00000130: f2d4 3d3b 22cb 013f 84f6 093f 3053 70be
00000140: 32c4 df3c 0821 1dbf a280 d0bd ee71 933d
00000150: bf0a a9bd dfe2 133f a233 95bd f36e 78bd
00000160: 7961 053f 1f0b 1d3f 89c9 923e 6db3 b4be
00000170: d6b9 123f 21a6 b13d 9a1b fe3e a8b7 aa3c
00000180: 90f9 8a3d f1ae cd3e 6b62 153f 9d9c 123f
00000190: 0e10 113f da32 e93d a459 483c 7200 7fbd
000001a0: da00 ccbd a42e a83d 624d 293f c998 62bc
000001b0: 7c2f 383d 7b81 bebe 3fd1 01bf 50d0 e0be
000001c0: 985d b1be c368 1b3f 71a3 f3be 8836 2e3c
000001d0: e4a6 e63e 80ae 973f a98a f43c 5a56 00be
000001e0: ba18 fc3e cdb9 053f ecc6 543e dcb6 c13e
000001f0: 3521 5d3d 3be5 cd3e 1650 b43e bc53 723d
00000200: 11d7 c73e 9ecb d9be 2a1b 3dbd 6c40 ec3e
00000210: 0612 47bd 5e27 87bc 1869 ccbc a8fa ed3e
00000220: 339d f23e 2125 043f 1335 7aba 9dee 44bb
00000230: 5edf b13c becf 0c3f b08f eb3e 7cc7 ecbe
00000240: 84c0 f3bd 5180 47be 9c41 23bd 7ad3 823d
00000250: bf8b 99bd bcc8 e83e 1a87 8dbc 484d 04bf
00000260: f557 053f f552 d4bd d78f ba3e d1c2 41be
00000270: 5c8c e33e e54c 0dbd de28 f33e 0a1d b6bd
00000280: cf28 5fbd f83d 0a3f 4687 013f c599 eb3e
00000290: a4ec f33e fc53 3fbd 6372 b33d acb2 f4be
000002a0: 33a9 61bd 61f2 203c 06df ff3e d207 e7bd
000002b0: 80cf cbbb 046a ecbe 8c83 03bf dada 85be
000002c0: 7009 00bf 1ae9 e93d 47cc 1c3d bc90 263d
000002d0: ff44 e13e a3da 8e3f effd 6cbd 31e9 f7be
000002e0: e0ad 133f 7e4d e43e e37c d53e 0eb1 083f
000002f0: 26b6 c3bd 5691 f13e 788d d73e b631 80bd
00000300: 1817 053f 490f 06bf 21ba b93d 3812 163f
00000310: e318 df3e 2aa6 aebd 18c3 7bbd 07cd 1b3f
00000320: fe07 143f 1e43 003f ea73 783b 9fc4 46bb
00000330: 7f6b ffba c8db c53e 4e03 093f 3792 0bbe
00000340: 500a 163c 34bc 13be c21f 953c 8130 83bd
00000350: 1d27 2a3d 08f8 8e3e 4c6a 083d 762d 95be
00000360: 9f71 a23e 0cd9 873e 5dbe f63e 67c6 65be
00000370: 89ae a03e 6082 683b 8f79 e03e 6548 c43d
00000380: d34a cf3d cc96 163f 5fa0 993e 05c8 e13e
00000390: b6e0 cc3e 83fd da3d 14da 35bd 6e54 97be
000003a0: 92b7 a83d f04e 29bd 21ab 2b3e 7805 883d
000003b0: f042 fdbd e6f1 b8be cf31 e9be dd4d 04bf
000003c0: 2aaf e8be 2aa9 b63e 34dc 13bf 96e2 ae3d
000003d0: 639b 0a3f 1da8 be3f c1e4 d0bd 8a55 d3be
000003e0: bbf7 a53e c09b 913e f72d de3e f988 bb3e
000003f0: ef7a 4a3d ad7a 133f 8b17 303f 002e 3ebb
0.4838779 -0.4928063 -0.033626303 0.35452843 0.46106055 0.062490027 0.12457231 0.37104085
0.5788789 0.38102797 -0.08251774 -0.075557485 0.016751183 0.5202181 0.3443997 -0.45912176
-0.08738226 -0.36026543 -0.036796156 -0.035979643 -0.11668942 0.5343138 -0.10727416 -0.4978794
0.31441483 0.22308539 0.4242208 -0.048681878 0.47981054 -0.0023938373 0.45280793 -0.12277443
-0.03906163 0.37975 0.2240302 0.53419286 0.45934534 0.07197668 -0.06178935 -0.1868333
-0.002039812 -0.07292496 0.33838248 0.115686774 0.105550975 -0.3641832 -0.3841963 -0.47499087
-0.30062348 0.31232014 -0.06952005 -0.12327604 0.4304003 1.6733267 -0.041219354 -0.38952267
0.29858088 0.3271768 0.4971021 0.4968927 -0.04308885 0.5474301 0.48482764 0.09972952
0.4858485 -0.59156656 -0.010494041 0.15898229 0.39293933 -0.10353201 -0.03239955 0.2218094
0.39121938 0.54014194 -0.12068171 -0.051702518 0.0028966037 0.5070058 0.5389178 -0.23469234
0.027315233 -0.61378527 -0.10180785 0.07199465 -0.08254003 0.5776805 -0.07285239 -0.060652684
0.52101856 0.61345094 0.28669384 -0.3529314 0.57314813 0.08674265 0.49630433 0.020839527
0.067858815 0.40172532 0.583533 0.5727022 0.5666512 0.11386652 0.012228403 -0.062256284
-0.099611 0.08212021 0.661337 -0.013830372 0.04496716 -0.3720816 -0.5070991 -0.4390893
-0.3464172 0.6070673 -0.47585633 0.010633118 0.45049202 1.1850128 0.029851275 -0.1253294
0.49237615 0.52236634 0.20779008 0.37834823 0.053986747 0.4021395 0.3521735 0.059161887
0.3903127 -0.4253816 -0.046168484 0.461429 -0.048601173 -0.016498264 -0.024952456 0.46480298
0.47385558 0.51619154 -0.0009544652 -0.003004945 0.021712955 0.5500449 0.46008062 -0.46245944
-0.11901954 -0.19482543 -0.03985749 0.06387992 -0.074973576 0.45465648 -0.017276336 -0.5168042
0.52087337 -0.10367385 0.36437866 -0.18921973 0.44443023 -0.03449716 0.47492117 -0.088922575
-0.054482277 0.54000807 0.50597036 0.46015754 0.4764148 -0.046710953 0.08762052 -0.47792566
-0.055093 0.009823413 0.4997484 -0.112807885 -0.0062198043 -0.46174634 -0.513726 -0.26143533
-0.500144 0.11421414 0.03828075 0.040665373 0.43997952 1.1160473 -0.057859357 -0.48420098
0.5768719 0.44590372 0.41696844 0.53395164 -0.095562264 0.47181195 0.4210012 -0.062594816
0.51988363 -0.52367073 0.090687044 0.5862155 0.43573675 -0.08527787 -0.061465353 0.6085972
0.57824695 0.5010241 0.0037910887 -0.0030329598 -0.0019486992 0.38644242 0.5352067 -0.13629995
0.009157732 -0.14427263 0.01820362 -0.06405736 0.041541208 0.27923608 0.033304498 -0.29136246
0.3172731 0.2653278 0.4819211 -0.22438966 0.3138316 0.00354781 0.43842742 0.09584121
0.101216935 0.5882385 0.30005166 0.44097915 0.4001519 0.10692885 -0.04439743 -0.29556602
0.08238138 -0.041335046 0.16764499 0.06641668 -0.12366283 -0.36122054 -0.45545813 -0.5168131
-0.4544614 0.35675937 -0.5775788 0.085393116 0.5414335 1.4895054 -0.10199881 -0.412762
0.32415566 0.2843914 0.43394443 0.3662794 0.049433645 0.57609063 0.68785924 -0.0029019117

net.4.bias f4 [4]
00000000: e3c5 47be 8990 9dbe 3942 f8bd 26ce 32be
-0.19509082 -0.30774334 -0.12122006 -0.17461452
