models/lunarlander_ep500.pth (torch, 41869 bytes, 6 tensors)

net.0.weight f4 [128, 8]
00000000: 80f8 2ebe fc8a 043f fb72 3f3f b61f b7be
00000010: 8b2c 353f 5b67 ff3d 7f08 3c3e d430 58be
00000020: 5b20 0f3f 8368 5cbe c941 62bf e381 17c0
00000030: f529 0fbe 83d1 723f 6c67 3e3f b832 2bbf
00000040: 7b63 893a f4d1 083b 6b42 c93f ca3c 2940
00000050: 6cc6 bbbe 4e30 1f3e e4c9 4d3f fd55 893f
00000060: 034c 80bf d36b 2c3f 7420 b03f 55f8 2bbf
00000070: f1a9 00c0 f096 073e 9b8a 0ebf 4544 93be
00000080: 8613 d23d f17b bf3e 0bc3 9dbf 400c 0f3e
00000090: 15e1 1440 e7fd 553e 76c7 9cbf 761b 023e
000000a0: e97b 663e 06dc 31be d0fe 87be 6698 ea3e
000000b0: 4942 423e c4e9 893f 1834 773c 2b96 b2bf
000000c0: 242c f03c 4484 8cbe 7542 ba3e 1c04 bd3b
000000d0: b6db 9cbd 185c 94bf eb41 053e aa02 ebbe
000000e0: bcc4 e7bd e1f4 473e 79fb 0dbf b61b e53e
000000f0: bdde 293d aabf 76bf 9b7c 2f3e 7e46 c6bd
00000100: 1349 edbf dbdf 5dbf 0857 0dbf 186c da3e
00000110: b1af dd3e da23 5abf 2885 5f3f de7b f73e
00000120: ef74 c93e e2aa e93e 8672 09bf 3413 193f
00000130: fef8 be3d 2439 e6be 9d8c 8e3d 3f31 b9be
00000140: 3c06 8f3f 9b9e f7be ddd9 29bf 9902 8b3f
00000150: 2b38 5b3f 5fc5 c63d 2de9 5f3f 84cb 16bf
00000160: 42a9 cb3f 101a 743e 8728 b73f 4471 2abf
00000170: 04c4 46bf 866c d5bf 98b7 c2bd 13ed bc3e
00000180: 726c 253f dda8 ab3d 4ce5 2b3f 9b1b 15bf
00000190: 057f b1bd c31f 9abf a7c5 823d dfc0 64bf
000001a0: 3ab7 aa3e 7fb5 143f 7a35 a13e a59a 883f
000001b0: 1b81 11c0 e47f 3e3d 8c1c 1d3f 88bb 143f
000001c0: f5c9 c93d 5eb5 a3bf b7b7 49bf a54f f7bf
000001d0: 009f 7a3f 1522 eebe e26c 17c0 ec37 aa3f
000001e0: ebc2 c4bf 74bf bfbe 5ad8 893f 4ded 7e3e
000001f0: ca9c e13e 9122 313f 5919 a1bf cefe 083f
00000200: 2dca 5c3e 3d4f 24be fb50 023f bd78 a5be
00000210: 12a6 83be 4e6d c5bf d2ac 04bf e7d6 ebbc
00000220: 0141 a33f f305 26bf 03d0 db3e c6a1 b5be
00000230: 6a4d 203f 4ca9 4ebf 377b 5dbe c506 afbe
00000240: 7c2b 23bf 83e5 d5bf 0762 ba3d 9fb1 42c0
00000250: 8906 32be 2d65 693e b816 87be 036d 6a3e
00000260: e2d3 3440 4ae7 89bf 301d 243f 88a2 afbe
00000270: d3d0 0b3f d79c bb3e 90b0 94bd fa00 193e
00000280: db4a 363e c17d 01bf a629 373f cf68 9abd
00000290: 3ff5 1140 273d 19be 29f7 8fbe 4394 05be
000002a0: ecf5 e2bf b29c 04be 1034 8dbd 462e 323f
000002b0: 54b1 7d3f 84f1 213f 18c0 aebe 23d7 69be
000002c0: 3f1b 41bf ea6a a4bf 4ca9 5f3e 113d cb3f
000002d0: a1f4 fabd 3e96 473f a8f9 593f ef72 b13d
000002e0: 4e37 11bf dcbe 86bd 9d48 16bf b354 a13f
000002f0: 7f9a 67bd 892b 723e 4aff 92bf e25b 7fbe
00000300: 2204 2d3f 60b5 283f 5a66 6f3f 518d 943f
00000310: 7a2a 18c0 d1c8 2cbf c680 48bf 7b96 ba3e
00000320: a0b6 6a3f e652 8dbf 3e9d 97bf 312a 803e
00000330: 9acf 5e3f 03a0 99bf 1d70 243f 9a84 c1be
00000340: 28b8 b3be f502 c5bf 53f3 62bf 7a80 023f
00000350: f3da 473f ba45 38c0 8420 32be 5b81 bb3e
00000360: 0adb eabe 9af2 1bc0 6eb5 00bf e6d7 7ebd
00000370: 6543 493e 8658 303f 46e9 033f bea4 13bc
00000380: 7130 84bf 921c 18bf 6ba1 3ebf d2a3 eebd
00000390: 9e2f 393f 6cc6 7fbf 0cb0 b1bf 9ff0 9ebe
000003a0: b173 8b3e a8a9 6ebe e1f1 e0bf 8747 603e
000003b0: fcba 2dbf d53a 4dbf 5b2c 1c3e 0a6c 653f
000003c0: 340f 793f a297 023f 9a21 2f3e abb9 953f
000003d0: a543 14c0 84a1 43be fd60 563f 5fcc ab3e
000003e0: b3cc 93bf e267 253f 436a 04bf aa45 a9bc
000003f0: ef6a 853f 8126 823e 97a2 66bc c5ca 24bf
-0.17086983 0.51774573 0.7478482 -0.3576638 0.7077109 0.12470885 0.18362616 -0.21112376
0.55908746 -0.21524243 -0.8838163 -2.3673027 -0.13980849 0.9485094 0.7437656 -0.66874266
0.0010481918 0.0020877095 1.5723394 2.6443353 -0.3667482 0.1554577 0.80386186 1.0729367
-1.0023197 0.67352027 1.3759904 -0.671758 -2.0103724 0.13241172 -0.55680245 -0.28763023
0.1025763 0.37399247 -1.2325147 0.13969517 2.326238 0.20897637 -1.2248371 0.12705788
0.22508205 -0.17369089 -0.26561594 0.45819396 0.18970598 1.0774465 0.015088104 -1.3952078
0.029317923 -0.2744466 0.36378828 0.005768312 -0.07659094 -1.1590605 0.13013427 -0.4590047
-0.11316821 0.19527008 -0.5546184 0.44747704 0.041472185 -0.96386206 0.17137377 -0.09681414
-1.8537925 -0.866697 -0.55210924 0.42660594 0.43298104 -0.85210955 0.87312555 0.4833669
0.39347026 0.45638186 -0.53690374 0.59794927 0.09324835 -0.4496547 0.069604136 -0.36170384
1.1173778 -0.48363194 -0.6634806 1.0860168 0.8563258 0.09705614 0.87465173 -0.5890429
1.5911028 0.23838067 1.4309243 -0.6657908 -0.77642846 -1.6673744 -0.09507674 0.36899623
0.646186 0.083818175 0.67146754 -0.5824525 -0.08666805 -1.2040943 0.063853554 -0.893568
0.33342916 0.5808944 0.31486112 1.0672194 -2.273505 0.046508685 0.61371684 0.5809865
0.09852973 -1.2789724 -0.7879595 -1.932118 0.97898865 -0.46510378 -2.3660207 1.3298316
-1.5371984 -0.37450755 1.076915 0.2489521 0.44064933 0.6919337 -1.258586 0.535138
0.21561499 -0.16045852 0.50904816 -0.32318678 -0.2571264 -1.5423982 -0.518262 -0.028788997
1.2754213 -0.6485283 0.42932138 -0.35474986 0.62618124 -0.80727077 -0.21629034 -0.34184852
-0.63738227 -1.6710666 0.091007285 -3.0420911 -0.17385305 0.22792502 -0.2638452 0.22893147
2.8254323 -1.0773709 0.64107037 -0.3430369 0.54615515 0.36643097 -0.07260239 0.14941779
0.17801993 -0.5058251 0.71547925 -0.07539522 2.2805936 -0.14964734 -0.28118256 -0.13044839
-1.7731299 -0.129504 -0.06894696 0.6960186 0.99098706 0.6325915 -0.3413093 -0.22835974
-0.754322 -1.2845128 0.21841925 1.5878011 -0.122536905 0.77963626 0.8514657 0.086645
-0.56725013 -0.06579372 -0.5870455 1.2603973 -0.056543823 0.2364942 -1.1484158 -0.24937394
0.6758443 0.65901756 0.9351555 1.1605626 -2.3775926 -0.6749392 -0.7832149 0.36442932
0.91684914 -1.1040924 -1.1844862 0.2503219 0.87035525 -1.2001957 0.6423357 -0.3779648
-0.35101438 -1.5391527 -0.88652533 0.5097729 0.78068465 -2.8792558 -0.17395216 0.36622128
-0.4587024 -2.4366822 -0.5027684 -0.062217616 0.19654615 0.68885076 0.5152782 -0.009011446
-1.0327283 -0.59418595 -0.74465054 -0.1165234 0.72338283 -0.9991214 -1.388185 -0.31042954
0.27236703 -0.23306906 -1.7573816 0.21902286 -0.6786344 -0.80167896 0.15251295 0.8961798
0.97288823 0.51012623 0.17102662 1.1697286 -2.3166287 -0.19104582 0.8374174 0.3355436
-1.1546844 0.6461164 -0.5172464 -0.020663101 1.0423259 0.2542 -0.01407685 -0.643719

net.0.bias f4 [128]
00000000: 7a6a f33e 0a8c 563d dfcd 3fbb b65c 84bf
00000010: e50e 48bf 6bba 5a3f 011d 393f 9946 6b3e
00000020: 48d7 56bf 8ac7 abbf 6165 3cbe 3a53 963f
00000030: 9feb b83f f8d3 e23e 411b 393f 388d f7bd
00000040: 4d80 9b3f d05a aabe 1b21 26bf 5db7 6cbd
00000050: ce74 983f 0407 2bbd e575 bebe b622 5fbf
00000060: d07f aa3e fcfa 58bf 2bf4 4d3d 1125 2cbf
00000070: 292e 083e d166 483e cb4f ff3e 9e00 a7bf
00000080: 7735 1f3e d9f1 03bf d491 563f 025d a0be
00000090: fa3b e53e 708b 43be 5340 c7bd e514 d2be
000000a0: c528 08bc 120d 9b3f ab36 ee3e e907 c2be
000000b0: 4028 203d acb2 73be 8158 083e 8ac0 bdbf
000000c0: 2f62 aabf c828 1fbe 65e8 74bc 7d37 803e
000000d0: c67e 403f a778 c63e 867a 223e 22d2 f3be
000000e0: d5a3 343f a798 bd3e 3561 bdbb 31ba a0be
000000f0: b894 c3bc e371 f3be bd8a c2be 8890 583f
00000100: 75c6 553c aaaa f53d 2bfa 4f3e 41f0 6ebf
00000110: 6758 dabe 9028 fe3e 14f0 48bf 2870 a6bf
00000120: 1560 4f3f 5fe6 a7be 2f85 58bf 1db0 80be
00000130: 3458 4f3f 72b6 e2be 0314 05bf e271 b2bf
00000140: 1175 6fbf 45aa 10bf 39fb 62be f2b3 da3d
00000150: 4ce8 623e 08a0 033e b3ea e83e 5ed0 32bf
00000160: dbb0 dbbc f14d 583f ba8a 033f 1450 3fbe
00000170: 651c 833e 3d6d 84bf bcd7 2bbf b9bb 373c
00000180: a862 93be b0d2 c13f df89 c6bf 2496 92bf
00000190: af40 82bf 288e 51bf 86fe 2c3f 982a 023f
000001a0: ec97 13bf 8076 02be e32e 07be 89dc 43be
000001b0: 57be 8bbf d7c2 d5bd 93ca 46bf 085e 953f
000001c0: 0a52 3ebe 1aee 44bf e70d 88bf 0949 3abf
000001d0: 0046 d13e 2e08 1c3e 2722 babf 6753 87bf
000001e0: e736 853f f243 a3bf b64e 73bf aaeb 0f3e
000001f0: 5e5f 4dbf 80fd 873e d765 d1be 9faf fe3d
0.47542173 0.052379645 -0.0029266996 -1.0340793 -0.7814773 0.854407 0.7230988 0.2297615
-0.83922243 -1.342027 -0.18398048 1.1744149 1.4446906 0.44302344 0.7230721 -0.12087482
1.2148529 -0.3327241 -0.64894265 -0.057792056 1.1910646 -0.041754737 -0.3719932 -0.8716234
0.33300638 -0.8475797 0.050281685 -0.6724406 0.13298859 0.19570471 0.49865565 -1.3047063
0.15547739 -0.51540905 0.83816266 -0.3132096 0.4477232 -0.1909616 -0.09729066 -0.41031566
-0.008310501 1.2113364 0.46526083 -0.3789666 0.039100885 -0.23798627 0.13315012 -1.4824383
-1.3311213 -0.155429 -0.014947985 0.25042334 0.7519344 0.38763925 0.15867051 -0.47621256
0.7056249 0.37030527 -0.0057794102 -0.31392053 -0.023874626 -0.47547826 -0.37996474 0.8459554
0.013047804 0.11995442 0.20310275 -0.9333535 -0.4264557 0.49640322 -0.7849133 -1.3002977
0.81005985 -0.32792947 -0.8457822 -0.25134364 0.8099396 -0.4427982 -0.5198366 -1.3941004
-0.93538004 -0.5650981 -0.22166146 0.10678853 0.22158927 0.12854016 0.4549156 -0.69849193
-0.02681773 0.8449393 0.51383555 -0.18682891 0.256076 -1.0345837 -0.6712606 0.01121419
-0.28786206 1.5142422 -1.5510825 -1.1452069 -1.017599 -0.8185754 0.6757587 0.5084624
-0.5765369 -0.12740517 -0.1320148 -0.19127096 -1.0917462 -0.104375534 -0.77652854 1.1669321
-0.18585983 -0.76925814 -1.0629243 -0.7276769 0.40873718 0.15237495 -1.4541672 -1.0572327
1.040738 -1.275511 -0.9504198 0.14054742 -0.80223644 0.26560593 -0.4089801 0.12435841

net.2.weight f4 [64, 128]
00000000: 61cf b2bd 8b8f 64bd 810a 9ebc 634e babd
00000010: a75b 48bd 6ef9 f4bd b4c2 0ebd d847 16bd
00000020: 5f9b b73c 1756 833c 3425 abbd 9074 93bc
00000030: dfa3 e63c 312d 66bd 48ae 883d d5ae 84bd
00000040: f663 aabd 2748 f7bc d77c 8bbd f3c1 8e3c
00000050: 3d2c 873b 5229 05bc 8068 083d 4e4c e1bc
00000060: df52 203d d2dd 93bd 2173 753d 7fc6 02be
00000070: 4deb 0b3d 6ac6 233d 6cb6 08be 3a76 8e3c
00000080: 001a a1bd 8607 003d 6fb2 483b 59f5 04be
00000090: 0706 6abd fa5d 9ebd 8cf3 91bd f228 8b3c
000000a0: 2e96 6d3d f6fb be3b 2626 afbd b407 873c
000000b0: aa68 e53b aad9 85bd c710 18bd aa93 43bd
000000c0: f5af 103c e0ee e0bd 2539 833d 5e0f 8bbc
000000d0: 9bb6 efbd 8455 96bd 9e86 e4bd d004 6e3d
000000e0: 3d14 05be d6f6 283d 6723 52bd ca9c fb3b
000000f0: 68e9 11bd 8b2c 07bb 7b0d dfbd 60e6 07bd
00000100: 796f 8fbd e18f cb3d 57c9 a4bd b5c2 79ba
00000110: dd70 13bd 6a81 663b cf34 01be cbf3 febc
00000120: 3e91 a9bd 34e0 b7bd aadf 893d 4b2f c7bc
00000130: b4c5 aabd 1e54 1e3c 670b 0ebe f1f2 c2bc
00000140: f6a4 58bd cf24 a9ba 8ea2 13be 5192 9dbc
00000150: fc16 aabd a1ea ddbd 6e13 4ebd 18a4 ba3d
00000160: cbfe e53b 5031 36bc f053 0ebe 9119 7ebc
00000170: 3009 e5bb 296c 003c baa1 40bc b76c d63c
00000180: 82f6 04bd 04d9 8abd 464c 17bd 2808 15bc
00000190: 17d8 aabc 10a9 81bd bf37 9cbc 7a59 21bc
000001a0: 0366 273a 8a64 89bd c2a4 513c a5c4 313d
000001b0: 8816 d2bb 6678 9bbb a522 213c c30e 0bbd
000001c0: 0d31 62bc d0ea 3fbd e503 25bd d1a6 a3bd
000001d0: 71b8 a9bd 7c16 80ba faa8 24bd 9d53 9bbd
000001e0: 5f83 a43c a21d 54bd f0b3 68bd 69b1 63bb
000001f0: 113a dcbd 3e51 89bc 8902 e0bc 01ad 16be
00000200: 66f2 19bf 19d4 273e c594 3dbf c961 ae3f
00000210: 80ff 96bd 38e8 2dbf 69d0 3dbf 8492 27bf
00000220: 0d17 eb3e b228 4ebe 7280 5fc0 313b 9f3f
00000230: 96e3 d0bf 761c 233f 6351 fa3e 13c4 f5be
00000240: 6265 cabf 250b 313e 0bfe 2440 c8bc 9e3f
00000250: 88a5 bebe 4390 50bf 0ce3 28bf 3444 1d3f
00000260: 2a21 f33e 07f7 09c0 d776 b03e 1b64 a63f
00000270: 05c8 173f 9516 edbd f265 de3e 54ac cabf
00000280: 8b17 7c3f 46d5 c0bf 550c afbf b3e3 343e
00000290: e737 973f d041 c33e 5ff9 2bbe 96c4 6b3f
000002a0: b49d 8dbf 4228 21bf f841 b0be a818 8fbd
000002b0: 38e1 8bbe 8572 af3c 67e0 b73f 9aa3 d33f
000002c0: 9cfb be3f f4f3 e33f 752f 4c3e 3926 52bf
000002d0: b999 41be baf6 69bf 529e 6e3f eb26 1f40
000002e0: ff0a 4f3e 97d0 5bbf 9c79 babf f46e 323f
000002f0: dba3 edbf 4a0d 5f3e f14b 9a3d 747d e0be
00000300: c8ca c53f ca24 073f eb16 533f e773 2dbd
00000310: f946 d23e 49c7 39bf 890a 753f 8113 113f
00000320: 148a 7f3f 5242 143f 74d1 d13f 3b37 1cbf
00000330: 4035 d2bf 5c1f d2bf db53 65ba 0778 1540
00000340: 0df1 85bf 39b4 81be fdec 0b3c cee4 8b3e
00000350: 4ba4 5a3f 31ac 20be 0a16 ccbc e33a da3f
00000360: c349 e03e 1105 cebd 75b2 3e3f 21a4 21bf
00000370: a93c 07bf 0e05 743e 7be1 823f afd6 81be
00000380: 8688 5c3d ae7c 853e 7cd8 1440 ad51 fe3f
00000390: de65 61be 0736 0540 a028 b6bf cba5 0ac0
000003a0: cfbd d7be c0ac 98bf 9dfa abbf 5d2f 963f
000003b0: 66b2 df3f 28c5 34bd e257 923f 0357 153f
000003c0: 081a 9c3f 5d53 243e 0e31 813f 1b7e 92bf
000003d0: 482c 91bf 86d1 883e eff8 af3f f3d8 a3bf
000003e0: eee3 51bf 8a94 8dc0 48a1 fd3f 76e5 623e
000003f0: db28 a03f f7c3 7fbe 3ae5 2cbf 5c79 773f
-0.08730961 -0.055800956 -0.019292118 -0.09096982 -0.04891553 -0.119616374 -0.034853652 -0.03668961
0.022412954 0.016032262 -0.08356705 -0.017999917 0.028154312 -0.05619544 0.066738665 -0.06478659
-0.08319847 -0.030185772 -0.06810921 0.017426467 0.0041251467 -0.008127527 0.033302784 -0.027502205
0.039141532 -0.07220043 0.05992425 -0.12771033 0.034159947 0.039984144 -0.13350838 0.01739036
-0.07866287 0.031257175 0.0030623933 -0.12984218 -0.057134654 -0.07732768 -0.07126531 0.016987298
0.05800455 0.005828376 -0.08552198 0.016483165 0.0070010023 -0.06535657 -0.037125375 -0.047748245
0.008831014 -0.10983062 0.06407384 -0.016975101 -0.11704751 -0.073405296 -0.11158489 0.05811006
-0.12996002 0.041251026 -0.051303294 0.007678603 -0.035622984 -0.0020625915 -0.10891243 -0.033178687
-0.070036836 0.09939552 -0.08046215 -0.000952761 -0.035996307 0.0035172352 -0.12617801 -0.031122109
-0.08279656 -0.0897831 0.06732114 -0.024314543 -0.0833849 0.00966361 -0.13871537 -0.023797484
-0.052891694 -0.0012904647 -0.14417478 -0.019234808 -0.08305165 -0.108357675 -0.0503115 0.0911333
0.007018899 -0.011120155 -0.13899207 -0.015509025 -0.0069896206 0.007838287 -0.011757309 0.026174886
-0.03246165 -0.06779674 -0.036937974 -0.009096183 -0.020854993 -0.06331074 -0.01906955 -0.009847993
0.00063857454 -0.067086294 0.012795629 0.043400425 -0.0064113773 -0.004744577 0.00983492 -0.033949625
-0.01380564 -0.046854794 -0.040286917 -0.07990802 -0.082871325 -0.0009772326 -0.04020021 -0.07584307
0.020082174 -0.051786073 -0.056812227 -0.0034743196 -0.10753263 -0.016762372 -0.027344959 -0.14714433
-0.60135496 0.16389503 -0.7405513 1.3623592 -0.073729515 -0.6793246 -0.74146134 -0.6545794
0.45916024 -0.20132712 -3.4922147 1.2439939 -1.6319454 0.637153 0.48890218 -0.48001155
-1.581219 0.17289408 2.5780056 1.2401361 -0.37235665 -0.81470126 -0.65971446 0.61432195
0.4748624 -2.1557024 0.34465668 1.29993 0.5928958 -0.11576573 0.43437153 -1.583384
0.98473424 -1.5065086 -1.3675638 0.17664985 1.1813935 0.38136148 -0.16794346 0.9209684
-1.1063752 -0.62952054 -0.3442533 -0.06987125 -0.27320266 0.021416912 1.4365357 1.6534302
1.4920535 1.7808824 0.19939978 -0.82089573 -0.18906297 -0.913921 0.9321033 2.4867504
0.20219038 -0.8586516 -1.4568362 0.6970055 -1.856563 0.21782413 0.07534016 -0.43845713
1.5452509 0.5279051 0.82456845 -0.04234686 0.41069773 -0.7256971 0.957192 0.56670386
0.99820065 0.57913697 1.6392045 -0.61021775 -1.6422501 -1.641582 -0.0008748152 2.335451
-1.0464188 -0.2533281 0.008540389 0.27323002 0.8540694 -0.15690686 -0.024912853 1.7049221
0.43806276 -0.1005956 0.74491054 -0.63141066 -0.52826935 0.23830053 1.0225061 -0.25359103
0.053841136 0.26071686 2.3257132 1.9868675 -0.22011515 2.0814226 -1.4231148 -2.1663692
-0.42137 -1.1927719 -1.3435856 1.1733204 1.7476318 -0.044133335 1.143307 0.58335894
1.2195444 0.16047426 1.0093095 -1.1444734 -1.1341639 0.26722354 1.3747844 -1.2800583
-0.8198842 -4.424382 1.9814844 0.22157845 1.2512468 -0.24977098 -0.6753727 0.96669555

net.2.bias f4 [64]
00000000: b44e 19be ce1f 03bf 2042 21bf 887d 8a3f
00000010: 1b50 873f 7e0e ab3c 02ca 1abf b8c9 1bbf
00000020: 0190 7cbf 4efe adbd 474e 423c 54dc 973f
00000030: ecfb 9cbe 4769 8bbc 989a 893f edb8 e2bd
00000040: 0814 b3bb 0033 2cbf 12c8 b43f 0cd2 253f
00000050: d93e 423f 27c8 30bd 2bf2 4a3f e8bb 34bf
00000060: 6edd c33f 770a 173e ecaa a5be 000e 0f3f
00000070: b7d6 2bbd 8ba7 9b3c 967e 493f bf76 4abd
00000080: 88c9 bfbe f255 263c f8e7 963e 7458 6f3c
00000090: 0174 94be 8dff 65bd 99d6 8bbd 4014 7c3d
000000a0: 4a52 f03e e2ad 3cbd 8ada 03be d7b5 91be
000000b0: d076 0abd d097 9bbe 1adb 46bf 37b6 04bf
000000c0: 42f2 1fbf c760 843e c7bd 5ebc 962a 77be
000000d0: 8a48 9c3f 07a0 18bf b6ff 6d3e f152 2bbd
000000e0: 455f 7fbd 3d19 82bf c15a 72bf 9248 b83f
000000f0: 2e58 133f c83e ad3f b803 bc3f 2ee2 b13c
-0.14971429 -0.51220405 -0.62991524 1.0819559 1.0571321 0.020880934 -0.6046449 -0.60854673
-0.9865723 -0.084957704 0.011859483 1.1864114 -0.3066095 -0.017017974 1.0750303 -0.11070428
-0.0054650344 -0.6726532 1.4123557 0.6477363 0.7587715 -0.04315963 0.7927577 -0.7059922
1.530195 0.14750086 -0.32356966 0.5588074 -0.041952815 0.01900079 0.7870878 -0.04942965
-0.37458444 0.010152327 0.29473853 0.014608491 -0.28994754 -0.056151915 -0.06828041 0.06154275
0.46937782 -0.046064265 -0.12876335 -0.28459045 -0.033804715 -0.3038926 -0.7767807 -0.5184054
-0.6247903 0.25855085 -0.013595051 -0.24137339 1.2209637 -0.5961918 0.23242077 -0.041827146
-0.062346715 -1.0163952 -0.9466973 1.4397147 0.57556427 1.3534784 1.4688635 0.021714296

net.4.weight f4 [4, 64]
00000000: 18ef 40bd 33ac 74bf a344 63bf cdf8 0540
00000010: b724 953e 4f51 6d3d 25a3 4bbf cdda f2be
00000020: 3838 45bf 216d 093f 767a 58bc 21dc 873e
00000030: 65a7 5abe ce3c c63f 2089 933e a807 2a3a
00000040: 0adb 64bd 766d 92bf ea04 3e3f bfc1 9c3e
00000050: af5b 9d3f 195a 163d d11c f83f 2f57 c2bd
00000060: f401 123f 5ea2 7dbf 1196 4cbf 42c1 2440
00000070: 6c39 8d3d dc24 8e3d 932b 28bf 2137 6dbf
00000080: ed22 2040 aa47 57bd 366b 363f 776f 26be
00000090: 3fc1 ec3f 8ffd 13bd 09e1 873f 9f86 32bf
000000a0: 87b0 0640 fe44 443d 4cda 873d 4c77 47be
000000b0: d24c 373f bda4 80bf 9907 2f3f 4d3c 60bf
000000c0: 447a b13f 61af 6c3e b92c dfbc fbd1 d5bf
000000d0: 7f03 243f 0f18 1a3e 46b2 ba3e 7d4c d0bd
000000e0: c90b 2840 13e1 ccbe 51f5 463f e969 ec3e
000000f0: fee0 333f e6d3 c63e 5217 283f b1b5 353f
00000100: 78c3 343d 6479 55bf 3bfc 29bf 3020 0540
00000110: aa63 cb3e c3b4 84bc 6a6d 4bbf ab9b 1dbf
00000120: c2c0 29bf 0aa5 80be 493d 16bd 4c6d 8f3e
00000130: 09dc 5fbf bfeb cb3f 6fa1 003f 8abf b6bd
00000140: 8c36 9a3d 1777 3cbf 2739 013f 594f f03e
00000150: fa1b 893f 9229 8abd 6651 0140 56c9 bebc
00000160: 6a9f e63e d938 8fbf c7b2 d3bf e36d 0140
00000170: 9266 fbbd b2d5 f03c 962b d8bf d28d 22bf
00000180: 941f 1840 108a 9cbd 55fd 913e 0267 ec3d
00000190: fc7d e93f f0ef 1a3c 87a7 3d3e 4866 31bf
000001a0: 2a73 0a40 4283 2a3d dd2c 16bd 6b36 c5bd
000001b0: d370 423f c7f2 98bf 6808 263f 1d4e 3bbf
000001c0: cee3 a83f 2581 523f 80eb adb8 971b 41bf
000001d0: ed5d 553f 89fd b73e 62a9 f53d aefd 62bc
000001e0: ac6b 2d40 cb52 04bf 5668 b83e a7bf aa3e
000001f0: 86e7 883f 5664 cc3e 1290 063f 4914 1dbf
00000200: 4d3b 14bd c092 52bf e688 95bf 0564 0c40
00000210: 1d32 e33e 9434 f33d 258d 30bf 8735 7ebe
00000220: c346 65bf 6889 2040 e6fe 96bd 69eb ae3e
00000230: add8 ffbf 37e1 c23f 28fc e63e 7626 a9bc
00000240: 44aa 9dbd 5438 b3bf c9c6 11bd 766d 823e
00000250: b9ad a23f d7e7 9e3b 19ed f73f 7381 5ebf
00000260: 69de 193f 3b1f 94bf 2105 c5bf 0994 2d40
00000270: 26c3 e9bd ee80 8e3d 9874 acbe 1198 68bf
00000280: 39fd 1f40 9266 c5bd 7c11 363e dcca 4c3f
00000290: dff7 df3f 7461 df3c 1d34 713f 7dd0 2cbf
000002a0: a4bf 0940 943d 893c 2cc3 1ebd 25b6 463f
000002b0: 5605 5e3f ef90 47bf c615 293f a05b 17bf
000002c0: 11ca b13f 5525 87be 7086 483d d380 e4bf
000002d0: cf06 333f a814 163f e85a 123f f104 89bd
000002e0: 74ff 2240 e128 52bf 1956 383f ff3c 3c3f
000002f0: 1792 323f 6c1c 203f 5d95 093f cee9 b63f
00000300: 640e 5e3b aa00 67bf fc7a 43be 89e0 0840
00000310: c70c fc3d 664e cd3d ba09 68bf 5b06 16bf
00000320: 4351 9ebf 4f1d 7a3f bff1 c13d 08c4 0b3f
00000330: 3cea ccbf 0b57 bf3f fdda 943d 0b3b bb3c
00000340: 504d 6ebc df7f 23bf eb2d 823f 86a9 773e
00000350: fe7e 993f 10c9 7ebd 5189 fa3f ba5d a8be
00000360: 832b 113f 89e9 6bbf f2cc c53d 25b8 fa3f
00000370: d4ac 3d3d bbc2 fdbc 672b 98be cab2 73bf
00000380: 76ba 2040 b782 66bd a84d 2a3f 6ac2 d6bc
00000390: cd19 e13f db02 e5bc 0fb1 af3f 5f2a 62bf
000003a0: 35c6 0340 2b11 82bd 3606 a43d 014b 70ba
000003b0: c101 393f 9442 f83e eb54 3b3f 6d04 67bf
000003c0: 87a8 aa3f 4359 f03b f3f4 d93d 1e87 9ebf
000003d0: e828 bb3e 1227 af3e aea3 ca3e d6b4 02bb
000003e0: 608d 3940 359d d4bf 8b00 083f b454 573f
000003f0: 2c40 0a3f 5f2b 9f3e 629d 173f f16a 433f
-0.047103018 -0.95575255 -0.88776606 2.0933106 0.29129574 0.05793887 -0.79545814 -0.47432557
-0.7703891 0.5368214 -0.013212791 0.26535133 -0.21352918 1.5487306 0.28815556 0.0006486126
-0.055872954 -1.1439655 0.7422625 0.30616567 1.2293605 0.036707018 1.9383794 -0.09489285
0.5703423 -0.9907588 -0.79916483 2.5742955 0.06895718 0.06940624 -0.6569149 -0.92662245
2.5021317 -0.05255858 0.7125734 -0.16253458 1.8496474 -0.036130484 1.061555 -0.69736665
2.1045244 0.04791736 0.06633434 -0.19479102 0.71601593 -1.0050274 0.6837097 -0.8759201
1.3865438 0.23113777 -0.027243005 -1.6704706 0.64067835 0.1504824 0.36464137 -0.10170839
2.6257193 -0.40015468 0.77718073 0.46174553 0.70265186 0.3883354 0.65660584 0.70980364
0.044131726 -0.8338835 -0.664005 2.0800896 0.39724475 -0.016199475 -0.7946383 -0.61565655
-0.6630975 -0.25125915 -0.03667954 0.28013074 -0.8744512 1.5931319 0.5024633 -0.08923252
0.07529935 -0.73619217 0.5047783 0.46935537 1.0711663 -0.0674621 2.0205932 -0.023289364
0.45043498 -1.1189224 -1.6538934 2.022332 -0.12275423 0.029398773 -1.6888301 -0.6349765
2.3769274 -0.07643521 0.2851359 0.11543085 1.8241572 0.00945662 0.18520938 -0.69296694
2.163279 0.041629083 -0.03666388 -0.0962952 0.75953406 -1.194909 0.64856577 -0.73166066
1.319452 0.8222831 -8.293148e-05 -0.75432724 0.83346444 0.3593562 0.11995198 -0.013854427
2.7096968 -0.5168883 0.36017102 0.33349344 1.0695655 0.399203 0.52563584 -0.6135908
-0.036189366 -0.8225517 -1.1682403 2.1936047 0.4437417 0.11875263 -0.6896537 -0.24825107
-0.895611 2.5083866 -0.07372837 0.3416398 -1.9987999 1.522498 0.45114255 -0.020648222
-0.07698491 -1.4001565 -0.035589967 0.25474137 1.2709266 0.004849415 1.9369231 -0.86916274
0.60104996 -1.1572031 -1.539219 2.7121603 -0.11414175 0.06958185 -0.33682704 -0.90857035
2.4998305 -0.09638704 0.17780107 0.7999704 1.7497519 0.027268149 0.94220144 -0.6750563
2.1523218 0.016752996 -0.03876035 0.7762168 0.8672689 -0.77955526 0.6604885 -0.59124184
1.3889791 -0.2639567 0.048956335 -1.7851814 0.69932264 0.5862527 0.5716996 -0.066903956
2.5468416 -0.82093626 0.72006375 0.7353057 0.69754165 0.6254337 0.53743535 1.4290102
0.003388309 -0.9023539 -0.19089884 2.1387045 0.123071246 0.10024719 -0.9063984 -0.5860345
-1.2368549 0.9770097 0.094699375 0.54595995 -1.6008983 1.4948438 0.07268331 0.022855302
-0.0145448 -0.6386699 1.0170263 0.24185762 1.199188 -0.062203467 1.9573156 -0.32884008
0.5670702 -0.9215322 0.09658231 1.9587446 0.0463074 -0.030976644 -0.29720613 -0.95194685
2.5113807 -0.056277003 0.66524744 -0.02621575 1.7585999 -0.027955463 1.3725909 -0.88345903
2.0589726 -0.06350931 0.08008997 -0.000916645 0.722683 0.48488295 0.7317645 -0.9024113
1.333268 0.0073348596 0.106424235 -1.2384984 0.36554646 0.34209496 0.39578003 -0.0019944212
2.8992538 -1.6610476 0.5312583 0.8411362 0.5400417 0.31087777 0.5922452 0.76335055

net.4.bias f4 [4]
00000000: 8b03 213e bbc0 75be 6f01 073f 98b2 c83e
0.15724008 -0.23999302 0.5273656 0.39198756
